…
01026', '0020rs22514', '0036rs22514', 'PSYPOOLS1701018', '0015rs22514', '0027rs22514', '1010 f14 01 011', '1010 f14 01 001', 'PSYPOOLS1701087', 'PSYPOOLS1701031', '0021rs22514']
Cuda available :-  True

device cuda 

[137 203 190 135 212 185 141 135 190 130 160 140 310 210 135 135 173 140
 140 280 162 111 190 144 130 140 183 114 140 150 170 270 202 135 160 125
 185 233 220 110 143 134 160 155 120 195 180 150 105 140]
bs 4 ss 8000
train num batches 13
val num batches 13
*************** New model Weight #  ***************
Details: embed_dim = 256 dropout = 0.2
********************
 Pct(
  (conv1): Conv1d(3, 64, kernel_size=(1,), stride=(1,), bias=False)
  (conv2): Conv1d(64, 64, kernel_size=(1,), stride=(1,), bias=False)
  (bn1): BatchNorm1d(64, eps=1e-05, momentum=0.1, affine=True, track_running_stats=True)
  (bn2): BatchNorm1d(64, eps=1e-05, momentum=0.1, affine=True, track_running_stats=True)
  (gather_local_0): Local_op(
    (conv1): Conv1d(128, 128, kernel_size=(1,), stride=(1,), bias=False)
    (conv2): Conv1d(128, 128, kernel_size=(1,), stride=(1,), bias=False)
    (bn1): BatchNorm1d(128, eps=1e-05, momentum=0.1, affine=True, track_running_stats=True)
    (bn2): BatchNorm1d(128, eps=1e-05, momentum=0.1, affine=True, track_running_stats=True)
  )
  (gather_local_1): Local_op(
    (conv1): Conv1d(256, 256, kernel_size=(1,), stride=(1,), bias=False)
    (conv2): Conv1d(256, 256, kernel_size=(1,), stride=(1,), bias=False)
    (bn1): BatchNorm1d(256, eps=1e-05, momentum=0.1, affine=True, track_running_stats=True)
    (bn2): BatchNorm1d(256, eps=1e-05, momentum=0.1, affine=True, track_running_stats=True)
  )
  (pt_last): Point_Transformer_Last(
    (conv1): Conv1d(256, 256, kernel_size=(1,), stride=(1,), bias=False)
    (conv2): Conv1d(256, 256, kernel_size=(1,), stride=(1,), bias=False)
    (bn1): BatchNorm1d(256, eps=1e-05, momentum=0.1, affine=True, track_running_stats=True)
    (bn2): BatchNorm1d(256, eps=1e-05, momentum=0.1, affine=True, track_running_stats=True)
    (sa1): SA_Layer(
      (q_conv): Conv1d(256, 64, kernel_size=(1,), stride=(1,), bias=False)
      (k_conv): Conv1d(256, 64, kernel_size=(1,), stride=(1,), bias=False)
      (v_conv): Conv1d(256, 256, kernel_size=(1,), stride=(1,))
      (trans_conv): Conv1d(256, 256, kernel_size=(1,), stride=(1,))
      (after_norm): BatchNorm1d(256, eps=1e-05, momentum=0.1, affine=True, track_running_stats=True)
      (act): ReLU()
      (softmax): Softmax(dim=-1)
    )
    (sa2): SA_Layer(
      (q_conv): Conv1d(256, 64, kernel_size=(1,), stride=(1,), bias=False)
      (k_conv): Conv1d(256, 64, kernel_size=(1,), stride=(1,), bias=False)
      (v_conv): Conv1d(256, 256, kernel_size=(1,), stride=(1,))
      (trans_conv): Conv1d(256, 256, kernel_size=(1,), stride=(1,))
      (after_norm): BatchNorm1d(256, eps=1e-05, momentum=0.1, affine=True, track_running_stats=True)
      (act): ReLU()
      (softmax): Softmax(dim=-1)
    )
    (sa3): SA_Layer(
      (q_conv): Conv1d(256, 64, kernel_size=(1,), stride=(1,), bias=False)
      (k_conv): Conv1d(256, 64, kernel_size=(1,), stride=(1,), bias=False)
      (v_conv): Conv1d(256, 256, kernel_size=(1,), stride=(1,))
      (trans_conv): Conv1d(256, 256, kernel_size=(1,), stride=(1,))
      (after_norm): BatchNorm1d(256, eps=1e-05, momentum=0.1, affine=True, track_running_stats=True)
      (act): ReLU()
      (softmax): Softmax(dim=-1)
    )
    (sa4): SA_Layer(
      (q_conv): Conv1d(256, 64, kernel_size=(1,), stride=(1,), bias=False)
      (k_conv): Conv1d(256, 64, kernel_size=(1,), stride=(1,), bias=False)
      (v_conv): Conv1d(256, 256, kernel_size=(1,), stride=(1,))
      (trans_conv): Conv1d(256, 256, kernel_size=(1,), stride=(1,))
      (after_norm): BatchNorm1d(256, eps=1e-05, momentum=0.1, affine=True, track_running_stats=True)
      (act): ReLU()
      (softmax): Softmax(dim=-1)
    )
  )
  (conv_fuse): Sequential(
    (0): Conv1d(1280, 1024, kernel_size=(1,), stride=(1,), bias=False)
    (1): BatchNorm1d(1024, eps=1e-05, momentum=0.1, affine=True, track_running_stats=True)
    (2): LeakyReLU(negative_slope=0.2)
  )
  (linear1): Linear(in_features=1024, out_features=512, bias=False)
  (bn6): BatchNorm1d(512, eps=1e-05, momentum=0.1, affine=True, track_running_stats=True)
  (dp1): Dropout(p=0.2, inplace=False)
  (linear2): Linear(in_features=512, out_features=256, bias=True)
  (bn7): BatchNorm1d(256, eps=1e-05, momentum=0.1, affine=True, track_running_stats=True)
  (dp2): Dropout(p=0.2, inplace=False)
  (linear3): Linear(in_features=256, out_features=1, bias=True)
  (reshape): Flatten(start_dim=1, end_dim=-1)
) 
****************************
Epoch [1/250], Progress: 1/13, Train Loss: 0.2279Epoch [1/250], Progress: 2/13, Train Loss: 0.4439Epoch [1/250], Progress: 3/13, Train Loss: 0.0608Epoch [1/250], Progress: 4/13, Train Loss: 0.1350Epoch [1/250], Progress: 5/13, Train Loss: 0.2010Epoch [1/250], Progress: 6/
…
