…
_script', 'ContrastiveLearning_Model/saved_models/files99/PCT/unmasked_encoder_32_1024_150_200_pd1024_ed256_lr0.0001_dl_PCT_loss']
/scratch/user/u.ds162927/PointCloud/DataLoader/../../BodyScan_Data/3dbsf_txt/
/scratch/user/u.ds162927/BodyScan_Data/3dbsf_txt
The minimum number of lines among all files: 49493
The maximum number of lines among all files: 63914
/scratch/user/u.ds162927/PointCloud/DataLoader/../../BodyScan_Data/3dbsf_txt/
Cuda available :-  True

device cuda 

*************** Using pretrained ***************
********************
 FineTuneModel(
  (pretrained_model): Pct(
    (conv1): Conv1d(3, 64, kernel_size=(1,), stride=(1,), bias=False)
    (conv2): Conv1d(64, 64, kernel_size=(1,), stride=(1,), bias=False)
    (bn1): BatchNorm1d(64, eps=1e-05, momentum=0.1, affine=True, track_running_stats=True)
    (bn2): BatchNorm1d(64, eps=1e-05, momentum=0.1, affine=True, track_running_stats=True)
    (gather_local_0): Local_op(
      (conv1): Conv1d(128, 128, kernel_size=(1,), stride=(1,), bias=False)
      (conv2): Conv1d(128, 128, kernel_size=(1,), stride=(1,), bias=False)
      (bn1): BatchNorm1d(128, eps=1e-05, momentum=0.1, affine=True, track_running_stats=True)
      (bn2): BatchNorm1d(128, eps=1e-05, momentum=0.1, affine=True, track_running_stats=True)
    )
    (gather_local_1): Local_op(
      (conv1): Conv1d(256, 256, kernel_size=(1,), stride=(1,), bias=False)
      (conv2): Conv1d(256, 256, kernel_size=(1,), stride=(1,), bias=False)
      (bn1): BatchNorm1d(256, eps=1e-05, momentum=0.1, affine=True, track_running_stats=True)
      (bn2): BatchNorm1d(256, eps=1e-05, momentum=0.1, affine=True, track_running_stats=True)
    )
    (pt_last): Point_Transformer_Last(
      (conv1): Conv1d(256, 256, kernel_size=(1,), stride=(1,), bias=False)
      (conv2): Conv1d(256, 256, kernel_size=(1,), stride=(1,), bias=False)
      (bn1): BatchNorm1d(256, eps=1e-05, momentum=0.1, affine=True, track_running_stats=True)
      (bn2): BatchNorm1d(256, eps=1e-05, momentum=0.1, affine=True, track_running_stats=True)
      (sa1): SA_Layer(
        (q_conv): Conv1d(256, 64, kernel_size=(1,), stride=(1,), bias=False)
        (k_conv): Conv1d(256, 64, kernel_size=(1,), stride=(1,), bias=False)
        (v_conv): Conv1d(256, 256, kernel_size=(1,), stride=(1,))
        (trans_conv): Conv1d(256, 256, kernel_size=(1,), stride=(1,))
        (after_norm): BatchNorm1d(256, eps=1e-05, momentum=0.1, affine=True, track_running_stats=True)
        (act): ReLU()
        (softmax): Softmax(dim=-1)
      )
      (sa2): SA_Layer(
        (q_conv): Conv1d(256, 64, kernel_size=(1,), stride=(1,), bias=False)
        (k_conv): Conv1d(256, 64, kernel_size=(1,), stride=(1,), bias=False)
        (v_conv): Conv1d(256, 256, kernel_size=(1,), stride=(1,))
        (trans_conv): Conv1d(256, 256, kernel_size=(1,), stride=(1,))
        (after_norm): BatchNorm1d(256, eps=1e-05, momentum=0.1, affine=True, track_running_stats=True)
        (act): ReLU()
        (softmax): Softmax(dim=-1)
      )
      (sa3): SA_Layer(
        (q_conv): Conv1d(256, 64, kernel_size=(1,), stride=(1,), bias=False)
        (k_conv): Conv1d(256, 64, kernel_size=(1,), stride=(1,), bias=False)
        (v_conv): Conv1d(256, 256, kernel_size=(1,), stride=(1,))
        (trans_conv): Conv1d(256, 256, kernel_size=(1,), stride=(1,))
        (after_norm): BatchNorm1d(256, eps=1e-05, momentum=0.1, affine=True, track_running_stats=True)
        (act): ReLU()
        (softmax): Softmax(dim=-1)
      )
      (sa4): SA_Layer(
        (q_conv): Conv1d(256, 64, kernel_size=(1,), stride=(1,), bias=False)
        (k_conv): Conv1d(256, 64, kernel_size=(1,), stride=(1,), bias=False)
        (v_conv): Conv1d(256, 256, kernel_size=(1,), stride=(1,))
        (trans_conv): Conv1d(256, 256, kernel_size=(1,), stride=(1,))
        (after_norm): BatchNorm1d(256, eps=1e-05, momentum=0.1, affine=True, track_running_stats=True)
        (act): ReLU()
        (softmax): Softmax(dim=-1)
      )
    )
    (conv_fuse): Sequential(
      (0): Conv1d(1280, 1024, kernel_size=(1,), stride=(1,), bias=False)
      (1): BatchNorm1d(1024, eps=1e-05, momentum=0.1, affine=True, track_running_stats=True)
      (2): LeakyReLU(negative_slope=0.2)
    )
    (linear1): Linear(in_features=1024, out_features=512, bias=False)
    (bn6): BatchNorm1d(512, eps=1e-05, momentum=0.1, affine=True, track_running_stats=True)
    (dp1): Dropout(p=0.1, inplace=False)
    (linear2): Linear(in_features=512, out_features=256, bias=True)
    (bn7): BatchNorm1d(256, eps=1e-05, momentum=0.1, affine=True, track_running_stats=True)
    (dp2): Dropout(p=0.1, inplace=False)
    (linear3): Linear(in_features=256, out_features=0, bias=True)
    (reshape): Flatten(start_dim=1, end_dim=-1)
  )
  (additional_layers): Sequential(
    (0): Linear(in_features=256, out_features=1024, bias=True)
    (1): LeakyReLU(negative_slope=0.01)
    (2): Dropout(p=0.1, inplace=False)
  )
  (final_layer): Sequential(
    (0): Linear(in_features=1024, out_features=1, bias=True)
  )
) 
****************************
Epoch [1/250], Progress: 1/8, Train Loss: 0.6698, Train Accuracy: 0.7500Epoch [1/250], Progress: 2/8, Train Loss: 0.6378, Train Accuracy: 0.7500Epoch [1/250], Progress: 3/8, Train Loss: 0.6723, Train Accuracy: 0.7500Epoch [1/250], Progress: 4/8, Train Loss: 0.7067, Train Accuracy: 0.2500Epoch [1/250], Progress: 5
…
