normalization: 0
(35708, 15000, 3)
(5158, 15000, 3)
Cuda available :-  True

device cuda 

*************** Using pretrained ***************
ContrastiveLearning_Model/saved_models/ShapeNetPretrained55/masked_encoder_64_2048_200_200_0_64_16_128_3_0.05_True_False_dl.pth
********************
 FineTuneModel(
  (pretrained_model): PyTorchModel(
    (input): Identity()
    (dense): Linear(in_features=3, out_features=64, bias=True)
    (induced_set_attention_blocks): ModuleList(
      (0): InducedSetAttentionBlock(
        (mab1): MultiHeadAttentionBlock(
          (att): CustomMultiheadAttention(
            (q_proj): Linear(in_features=64, out_features=64, bias=False)
            (k_proj): Linear(in_features=64, out_features=64, bias=False)
            (v_proj): Linear(in_features=64, out_features=64, bias=False)
            (out_proj): Linear(in_features=64, out_features=64, bias=False)
          )
          (ffn): Sequential(
            (0): Linear(in_features=64, out_features=64, bias=True)
            (1): ReLU()
            (2): Linear(in_features=64, out_features=64, bias=True)
          )
          (layernorm_x): LayerNorm((64,), eps=0.001, elementwise_affine=True)
          (layernorm_y): LayerNorm((64,), eps=0.001, elementwise_affine=True)
          (layernorm_attn): LayerNorm((64,), eps=0.001, elementwise_affine=True)
        )
        (mab2): MultiHeadAttentionBlock(
          (att): CustomMultiheadAttention(
            (q_proj): Linear(in_features=64, out_features=64, bias=False)
            (k_proj): Linear(in_features=64, out_features=64, bias=False)
            (v_proj): Linear(in_features=64, out_features=64, bias=False)
            (out_proj): Linear(in_features=64, out_features=64, bias=False)
          )
          (ffn): Sequential(
            (0): Linear(in_features=64, out_features=64, bias=True)
            (1): ReLU()
            (2): Linear(in_features=64, out_features=64, bias=True)
          )
          (layernorm_x): LayerNorm((64,), eps=0.001, elementwise_affine=True)
          (layernorm_y): LayerNorm((64,), eps=0.001, elementwise_affine=True)
          (layernorm_attn): LayerNorm((64,), eps=0.001, elementwise_affine=True)
        )
      )
      (1): InducedSetAttentionBlock(
        (mab1): MultiHeadAttentionBlock(
          (att): CustomMultiheadAttention(
            (q_proj): Linear(in_features=64, out_features=64, bias=False)
            (k_proj): Linear(in_features=64, out_features=64, bias=False)
            (v_proj): Linear(in_features=64, out_features=64, bias=False)
            (out_proj): Linear(in_features=64, out_features=64, bias=False)
          )
          (ffn): Sequential(
            (0): Linear(in_features=64, out_features=64, bias=True)
            (1): ReLU()
            (2): Linear(in_features=64, out_features=64, bias=True)
          )
          (layernorm_x): LayerNorm((64,), eps=0.001, elementwise_affine=True)
          (layernorm_y): LayerNorm((64,), eps=0.001, elementwise_affine=True)
          (layernorm_attn): LayerNorm((64,), eps=0.001, elementwise_affine=True)
        )
        (mab2): MultiHeadAttentionBlock(
          (att): CustomMultiheadAttention(
            (q_proj): Linear(in_features=64, out_features=64, bias=False)
            (k_proj): Linear(in_features=64, out_features=64, bias=False)
            (v_proj): Linear(in_features=64, out_features=64, bias=False)
            (out_proj): Linear(in_features=64, out_features=64, bias=False)
          )
          (ffn): Sequential(
            (0): Linear(in_features=64, out_features=64, bias=True)
            (1): ReLU()
            (2): Linear(in_features=64, out_features=64, bias=True)
          )
          (layernorm_x): LayerNorm((64,), eps=0.001, elementwise_affine=True)
          (layernorm_y): LayerNorm((64,), eps=0.001, elementwise_affine=True)
          (layernorm_attn): LayerNorm((64,), eps=0.001, elementwise_affine=True)
        )
      )
      (2): InducedSetAttentionBlock(
        (mab1): MultiHeadAttentionBlock(
          (att): CustomMultiheadAttention(
            (q_proj): Linear(in_features=64, out_features=64, bias=False)
            (k_proj): Linear(in_features=64, out_features=64, bias=False)
            (v_proj): Linear(in_features=64, out_features=64, bias=False)
            (out_proj): Linear(in_features=64, out_features=64, bias=False)
          )
          (ffn): Sequential(
            (0): Linear(in_features=64, out_features=64, bias=True)
            (1): ReLU()
            (2): Linear(in_features=64, out_features=64, bias=True)
          )
          (layernorm_x): LayerNorm((64,), eps=0.001, elementwise_affine=True)
          (layernorm_y): LayerNorm((64,), eps=0.001, elementwise_affine=True)
          (layernorm_attn): LayerNorm((64,), eps=0.001, elementwise_affine=True)
        )
        (mab2): MultiHeadAttentionBlock(
          (att): CustomMultiheadAttention(
            (q_proj): Linear(in_features=64, out_features=64, bias=False)
            (k_proj): Linear(in_features=64, out_features=64, bias=False)
            (v_proj): Linear(in_features=64, out_features=64, bias=False)
            (out_proj): Linear(in_features=64, out_features=64, bias=False)
          )
          (ffn): Sequential(
            (0): Linear(in_features=64, out_features=64, bias=True)
            (1): ReLU()
            (2): Linear(in_features=64, out_features=64, bias=True)
          )
          (layernorm_x): LayerNorm((64,), eps=0.001, elementwise_affine=True)
          (layernorm_y): LayerNorm((64,), eps=0.001, elementwise_affine=True)
          (layernorm_attn): LayerNorm((64,), eps=0.001, elementwise_affine=True)
        )
      )
    )
    (dropout): Dropout(p=0.05, inplace=False)
    (pooling_attention): PoolingByMultiHeadAttention(
      (mab): MultiHeadAttentionBlock(
        (att): CustomMultiheadAttention(
          (q_proj): Linear(in_features=64, out_features=64, bias=False)
          (k_proj): Linear(in_features=64, out_features=64, bias=False)
          (v_proj): Linear(in_features=64, out_features=64, bias=False)
          (out_proj): Linear(in_features=64, out_features=64, bias=False)
        )
        (ffn): Sequential(
          (0): Linear(in_features=64, out_features=64, bias=True)
          (1): ReLU()
          (2): Linear(in_features=64, out_features=64, bias=True)
        )
        (layernorm_x): LayerNorm((64,), eps=0.001, elementwise_affine=True)
        (layernorm_y): LayerNorm((64,), eps=0.001, elementwise_affine=True)
        (layernorm_attn): LayerNorm((64,), eps=0.001, elementwise_affine=True)
        (layernorm_final): LayerNorm((64,), eps=0.001, elementwise_affine=True)
      )
    )
    (final_dropout): Dropout(p=0.05, inplace=False)
    (reshape): Flatten(start_dim=1, end_dim=-1)
    (final_dense): Linear(in_features=64, out_features=0, bias=True)
    (criterion): CrossEntropyLoss()
  )
  (additional_layers): Sequential(
    (0): Linear(in_features=64, out_features=2048, bias=True)
    (1): BatchNorm1d(2048, eps=1e-05, momentum=0.1, affine=True, track_running_stats=True)
    (2): LeakyReLU(negative_slope=0.01)
    (3): Dropout(p=0.4, inplace=False)
  )
  (final_layer): Sequential(
    (0): Linear(in_features=2048, out_features=55, bias=True)
  )
) 
****************************
param <generator object Module.parameters at 0x15501f0c38d0>

bs: 32 ss 2048 

Epoch [1/250], Progress: 1/67, Train Loss: 4.1654, Train Accuracy: 0.0312Epoch [1/250], Progress: 2/67, Train Loss: 4.0978, Train Accuracy: 0.0312Epoch [1/250], Progress: 3/67, Train Loss: 4.0661, Train Accuracy: 0.0938Epoch [1/250], P
…
