…
, '03593526': 28, '03624134': 29, '03636649': 30, '03642806': 31, '03691459': 32, '03710193': 33, '03759954': 34, '03761084': 35, '03790512': 36, '03797390': 37, '03928116': 38, '03938244': 39, '03948459': 40, '03991062': 41, '04004475': 42, '04074963': 43, '04090263': 44, '04099429': 45, '04225987': 46, '04256520': 47, '04330267': 48, '04379243': 49, '04401088': 50, '04460130': 51, '04468005': 52, '04530566': 53, '04554684': 54}
(35378, 15000, 3)
(5158, 15000, 3)
Cuda available :-  True

device cuda 

*************** New model ***************
num_classes 55
********************
 Pct(
  (conv1): Conv1d(3, 64, kernel_size=(1,), stride=(1,), bias=False)
  (conv2): Conv1d(64, 64, kernel_size=(1,), stride=(1,), bias=False)
  (bn1): BatchNorm1d(64, eps=1e-05, momentum=0.1, affine=True, track_running_stats=True)
  (bn2): BatchNorm1d(64, eps=1e-05, momentum=0.1, affine=True, track_running_stats=True)
  (gather_local_0): Local_op(
    (conv1): Conv1d(128, 128, kernel_size=(1,), stride=(1,), bias=False)
    (conv2): Conv1d(128, 128, kernel_size=(1,), stride=(1,), bias=False)
    (bn1): BatchNorm1d(128, eps=1e-05, momentum=0.1, affine=True, track_running_stats=True)
    (bn2): BatchNorm1d(128, eps=1e-05, momentum=0.1, affine=True, track_running_stats=True)
  )
  (gather_local_1): Local_op(
    (conv1): Conv1d(256, 256, kernel_size=(1,), stride=(1,), bias=False)
    (conv2): Conv1d(256, 256, kernel_size=(1,), stride=(1,), bias=False)
    (bn1): BatchNorm1d(256, eps=1e-05, momentum=0.1, affine=True, track_running_stats=True)
    (bn2): BatchNorm1d(256, eps=1e-05, momentum=0.1, affine=True, track_running_stats=True)
  )
  (pt_last): Point_Transformer_Last(
    (conv1): Conv1d(256, 256, kernel_size=(1,), stride=(1,), bias=False)
    (conv2): Conv1d(256, 256, kernel_size=(1,), stride=(1,), bias=False)
    (bn1): BatchNorm1d(256, eps=1e-05, momentum=0.1, affine=True, track_running_stats=True)
    (bn2): BatchNorm1d(256, eps=1e-05, momentum=0.1, affine=True, track_running_stats=True)
    (sa1): SA_Layer(
      (q_conv): Conv1d(256, 64, kernel_size=(1,), stride=(1,), bias=False)
      (k_conv): Conv1d(256, 64, kernel_size=(1,), stride=(1,), bias=False)
      (v_conv): Conv1d(256, 256, kernel_size=(1,), stride=(1,))
      (trans_conv): Conv1d(256, 256, kernel_size=(1,), stride=(1,))
      (after_norm): BatchNorm1d(256, eps=1e-05, momentum=0.1, affine=True, track_running_stats=True)
      (act): ReLU()
      (softmax): Softmax(dim=-1)
    )
    (sa2): SA_Layer(
      (q_conv): Conv1d(256, 64, kernel_size=(1,), stride=(1,), bias=False)
      (k_conv): Conv1d(256, 64, kernel_size=(1,), stride=(1,), bias=False)
      (v_conv): Conv1d(256, 256, kernel_size=(1,), stride=(1,))
      (trans_conv): Conv1d(256, 256, kernel_size=(1,), stride=(1,))
      (after_norm): BatchNorm1d(256, eps=1e-05, momentum=0.1, affine=True, track_running_stats=True)
      (act): ReLU()
      (softmax): Softmax(dim=-1)
    )
    (sa3): SA_Layer(
      (q_conv): Conv1d(256, 64, kernel_size=(1,), stride=(1,), bias=False)
      (k_conv): Conv1d(256, 64, kernel_size=(1,), stride=(1,), bias=False)
      (v_conv): Conv1d(256, 256, kernel_size=(1,), stride=(1,))
      (trans_conv): Conv1d(256, 256, kernel_size=(1,), stride=(1,))
      (after_norm): BatchNorm1d(256, eps=1e-05, momentum=0.1, affine=True, track_running_stats=True)
      (act): ReLU()
      (softmax): Softmax(dim=-1)
    )
    (sa4): SA_Layer(
      (q_conv): Conv1d(256, 64, kernel_size=(1,), stride=(1,), bias=False)
      (k_conv): Conv1d(256, 64, kernel_size=(1,), stride=(1,), bias=False)
      (v_conv): Conv1d(256, 256, kernel_size=(1,), stride=(1,))
      (trans_conv): Conv1d(256, 256, kernel_size=(1,), stride=(1,))
      (after_norm): BatchNorm1d(256, eps=1e-05, momentum=0.1, affine=True, track_running_stats=True)
      (act): ReLU()
      (softmax): Softmax(dim=-1)
    )
  )
  (conv_fuse): Sequential(
    (0): Conv1d(1280, 1024, kernel_size=(1,), stride=(1,), bias=False)
    (1): BatchNorm1d(1024, eps=1e-05, momentum=0.1, affine=True, track_running_stats=True)
    (2): LeakyReLU(negative_slope=0.2)
  )
  (linear1): Linear(in_features=1024, out_features=512, bias=False)
  (bn6): BatchNorm1d(512, eps=1e-05, momentum=0.1, affine=True, track_running_stats=True)
  (dp1): Dropout(p=0.2, inplace=False)
  (linear2): Linear(in_features=512, out_features=256, bias=True)
  (bn7): BatchNorm1d(256, eps=1e-05, momentum=0.1, affine=True, track_running_stats=True)
  (dp2): Dropout(p=0.2, inplace=False)
  (linear3): Linear(in_features=256, out_features=55, bias=True)
  (reshape): Flatten(start_dim=1, end_dim=-1)
) 
****************************
param <generator object Module.parameters at 0x7fbd2c397610>

bs: 16 ss 2048 

Epoch [1/250], Progress: 1/114, Train Loss: 4.0843, Train Accuracy: 0.0000Epoch [1/250], Progress: 2/114, Train Loss: 4.1316, Train Accuracy: 0.0000Epoch [1/250], Progress: 3/114, Train Loss: 4.1
…
